…
  model_name: cnn_small_regularizers
  model_type: CNN
  model_goal: binary text classification
  train_epochs: 2
  model_structure: 
        _________________________________________________________________
        Layer (type)                Output Shape              Param #   
        =================================================================
        tokenized_dataset (InputLa  [(None, 512)]             0         
        yer)                                                            
                                                                        
        embeddings (Embedding)      (None, 512, 128)          1048576   
                                                                        
        reshape_2 (Reshape)         (None, 512, 128, 1)       0         
                                                                        
        convolution-1 (Conv2D)      (None, 510, 126, 64)      640       
                                                                        
        dropout_4 (Dropout)         (None, 510, 126, 64)      0         
                                                                        
        convolution-2 (Conv2D)      (None, 508, 124, 32)      18464     
                                                                        
        maxpool1 (MaxPooling2D)     (None, 254, 62, 32)       0         
                                                                        
        flatten_2 (Flatten)         (None, 503936)            0         
                                                                        
        dense_6 (Dense)             (None, 64)                32251968  
                                                                        
        dense_7 (Dense)             (None, 16)                1040      
                                                                        
        dense_8 (Dense)             (None, 1)                 17        
                                                                        
        =================================================================

  binary_accuracy: ~0.99
  competition_score: 0.806
  model_size:
      Total params: 33320705 (127.11 MB)
      Trainable params: 33320705 (127.11 MB)
      Non-trainable params: 0 (0.00 Byte)

  model_code:
    input_ids = tf.keras.Input(shape=(MAX_LENGTH,), name='tokenized_dataset', dtype='int32')
…
