…
  model_name: cnn_standard_regularizers
  model_type: CNN
  model_goal: binary text classification
  train_epochs: 3
  model_structure: 
        _________________________________________________________________
        Layer (type)                Output Shape              Param #   
        =================================================================
        tokenized_dataset (InputLa  [(None, 512)]             0         
        yer)                                                            
                                                                        
        embeddings (Embedding)      (None, 512, 128)          1048576   
                                                                        
        reshape (Reshape)           (None, 512, 128, 1)       0         
                                                                        
        convolution-1 (Conv2D)      (None, 510, 126, 64)      640       
                                                                        
        dropout (Dropout)           (None, 510, 126, 64)      0         
                                                                        
        convolution-2 (Conv2D)      (None, 508, 124, 32)      18464     
                                                                        
        maxpool1 (MaxPooling2D)     (None, 254, 62, 32)       0         
                                                                        
        flatten (Flatten)           (None, 503936)            0         
                                                                        
        dense (Dense)               (None, 128)               64503936  
                                                                        
        dropout_1 (Dropout)         (None, 128)               0         
                                                                        
        dense_1 (Dense)             (None, 64)                8256      
                                                                        
        dense_1 (Dense)             (None, 1)                 65        
                                                                        
        =================================================================


  binary_accuracy: ~0.98
  competition_score: 0.804
  model_size: 
    Total params: 65579937 (250.17 MB)
    Trainable params: 65579937 (250.17 MB)
    Non-trainable params: 0 (0.00 Byte)
  model_code:
    input_ids = tf.keras.Input(shape=(MAX_LENGTH,), name='tokenized_dataset', dtype='int32')
…
