…
  model_goal: binary text classification
  train_epochs: 2
  model_structure: 
        name: "CNN_Model"
        structure:
          _________________________________________________________________
          Layer (type)                Output Shape              Param #   
          =================================================================
          tokenized_dataset (InputLa  [(None, 512)]             0         
          yer)                                                            
                                                                          
          embeddings (Embedding)      (None, 512, 256)          2097152   
                                                                          
          reshape (Reshape)           (None, 512, 256, 1)       0         
                                                                          
          convolution-1 (Conv2D)      (None, 510, 254, 64)      640       
                                                                          
          dropout (Dropout)           (None, 510, 254, 64)      0         
                                                                          
          convolution-2 (Conv2D)      (None, 508, 252, 32)      18464     
                                                                          
          maxpool1 (MaxPooling2D)     (None, 254, 126, 32)      0         
                                                                          
          flatten (Flatten)           (None, 1024128)           0         
                                                                          
          dense (Dense)               (None, 256)               262177024 
                                                                          
          dense_1 (Dense)             (None, 64)                16448     
                                                                          
          dense_2 (Dense)             (None, 16)                1040      
                                                                          
          dense_3 (Dense)             (None, 1)                 17        
                                                                          
          =================================================================
  binary_accuracy: ~0.99
  competition_score: 0.802
  model_size: 
    Total params: 264310785 (1008.27 MB)
    Trainable params: 264310785 (1008.27 MB)
    Non-trainable params: 0 (0.00 Byte)
  model_code:
      input_ids = tf.keras.Input(shape=(MAX_LENGTH,), name='tokenized_dataset', dtype='int32')
…
